experiment/fig2/checkpoint_model.pth (torch, 132959 bytes, 4 tensors)

linear.0.weight f4 [32, 1024]
00000000: 5837 033c 8435 be3d 3553 01bc 40db be3d
00000010: ea0e fbbd 4074 703d 160a 5f3b 42f7 69bc
00000020: 8865 27bb a1b7 e3bd 79c2 a63d 6719 633e
00000030: 6c82 a73d 0912 3ebe 1d7c 40bd 8509 87be
00000040: 0882 40be 7134 c2bb 8a58 e33d 4190 8bbd
00000050: 6d67 ba3d a10d eabc d3ca 9fbd 2ef4 373e
00000060: 3dba 293e af21 513e fea2 ee3c 85ca 5b3e
00000070: 7db5 f53d 24d6 26be a99b ffbc 9719 7f3b
00000080: dad3 15bd df40 693d a702 88bd dbc0 c1bc
00000090: d515 98be 360c 9a3d 82bf 563d 8e78 903d
000000a0: d9b1 973d 80ee d23c cc0b a1bd ee81 e5bd
000000b0: 34cf b9bd b34d f3bd 3575 2a3e dbd4 813e
000000c0: 8f9f 473e 7438 a5bd d61e 6dbe 609f 37bd
000000d0: 7e03 06be 60f5 cdbc 25c1 893c 7bc1 d43d
000000e0: a446 693d 7393 01be f06a 3bbe 26e0 cebd
000000f0: 583e 92bd 16df ba3d 4a40 6a3c db84 9ebd
00000100: 8572 c93d 076e b53d 7a83 91bd 4fc6 21be
00000110: c0a6 1abe 85d2 07be 2d00 433c 8ec1 653d
00000120: 431a 14bc bb50 d33d 7661 3d3e de96 a7bc
00000130: d5dc 02be 32c3 ae3c 1180 693e 891b 153d
00000140: 314b 2e3e ca4c b83d a33e 0f3e b77f 9c3d
00000150: daf1 b5bc dd6b 9a3d b9dd 37be 97b8 b93d
00000160: dd56 8a3b c084 61bc 314e 153e 9028 f7bc
00000170: 4020 b33d 17a5 0c3e 07d9 03bd 8074 b8bd
00000180: bf91 56bd 429d 4bbd 9157 74bd 3413 ed3c
00000190: 87c0 2f3e d393 60bd 2e33 9dbb 2d55 293e
000001a0: 1b4f 3d3e 01d7 3f3e 86ba bd3d c003 abbc
000001b0: 4737 fd3d abad 96bd 5314 8e3d 45e6 43be
000001c0: 32ef dc3c b497 a43e 1a5c e7bc 0b29 ecbc
000001d0: 9ba4 933d e909 833d bd77 093c 890a 943b
000001e0: 2778 ffbd dbdc b7bc d7bb 49be a92e d0bb
000001f0: b8ac ac3c 76c5 b2bd 0c46 2d3b dfa1 dc3d
00000200: 6e0e 0a3e 429e 863e 58b5 e63c e8e3 94bd
00000210: 8b19 363e e6bc 41be 6379 d03d 5e02 e93b
00000220: 3004 923a af6c 71be 41b5 bf3d c9fe ae3d
00000230: 90ed 893d 0694 753d 6543 a7be ef55 bfbd
00000240: d3b9 d2bc 8cc7 553e a88e c539 207f cebd
00000250: 8756 a13d 0283 883d 0cf9 64bd 286e f53c
00000260: 83fe 45be 9ec5 a1bd 6a5d 5d3e 7bc8 48bc
00000270: 88e6 8abd 0a50 513e 55b8 093e 3b9c 273e
00000280: 3096 d03d f050 bb3d f660 babd b334 c8bd
00000290: 965e 4a3c ac7b dfbd d98e 9b3d f6a3 e33d
000002a0: c6e2 2e3d eb21 553e 2f1a 5e3e 9fed b83d
000002b0: 2dd8 ff3d 4138 733d 78ba 59bd 5e4c 96be
000002c0: 7ef0 ccbd 9cbd dc3d 32a9 4c3e 7574 2c3d
000002d0: 33fd c03d 3b8e 953d 4156 08be 6f28 6d3d
000002e0: 7521 cb3d 1208 813a 5a2e 95bd 6bed 6e3d
000002f0: e482 b53d 20bf 1ebd c674 adbc 5b09 de3d
00000300: d640 5cbe 48a3 06bd 7f20 853e 9c2f c73d
00000310: 00bf 593d 5b82 1a3e e62f ff3d d9a5 4cbd
00000320: bdbb bf3d 9087 08be 3221 80bd 20cf d5bc
00000330: f391 c4bd 3ded 2c3d 2729 03bd 1fc7 b13e
00000340: 509a ed3d 0091 5dbe 8f17 b5bd ac14 35bd
00000350: 82ac cdbd 9165 96be 3cd6 a3be a2ae b33e
00000360: d200 6bbc 22e3 cc3d 58c2 f3bd a43f a4bd
00000370: d435 25be 8a92 9ebc dfe0 06be 33cc 38be
00000380: ba0b 343e faa8 273d 9152 97bd e062 e1bc
00000390: 2862 66be 32fb 76be 00e2 913d c26d e8bc
000003a0: e5e4 593d 4c2f 823d 3b00 0e3e 2e70 5dbe
000003b0: d43e e5bc ddd9 783e be45 a63b 90f6 523c
000003c0: f8fd d1bc da08 3ebc d73b 4bbd 3680 27bd
000003d0: 1a14 29bd 1b91 1d3e 5428 10bd 6e4c 373e
000003e0: 996e 343e 1d1d b5bd 6f21 5bbe 1432 9fbc
000003f0: 8384 cfbd 7c21 7f3e 9ae8 7a3e 3e40 d8bd
0.0080088 0.09287551 -0.007893373 0.09319162 -0.12258704 0.058704615 0.0034033111 -0.014280142
-0.0025542695 -0.11119009 0.081425615 0.22177659 0.08179173 -0.18561567 -0.046993364 -0.2637445
-0.18799603 -0.0059266617 0.11100872 -0.068146236 0.09101758 -0.028570952 -0.078023575 0.17964241
0.1657495 0.20423006 0.029130455 0.21463974 0.11997507 -0.16292626 -0.031202154 0.0038925165
-0.03657899 0.05694663 -0.06641131 -0.023651531 -0.29704157 0.0752186 0.05242873 0.07054244
0.074069686 0.025748491 -0.07863578 -0.11206423 -0.09072724 -0.11880054 0.16646273 0.25357708
0.1949446 -0.08067408 -0.23156294 -0.044829726 -0.1308727 -0.025141418 0.016815731 0.10388466
0.056952134 -0.12653904 -0.18302512 -0.10101347 -0.071407974 0.091245815 0.014297554 -0.07740184
0.09836296 0.08858877 -0.07105155 -0.15798305 -0.15102673 -0.132639 0.011901897 0.05609279
-0.009039464 0.103181325 0.1849421 -0.020457681 -0.12779553 0.02133331 0.2280276 0.036403213
0.17020871 0.08999021 0.13988738 0.07641547 -0.02221005 0.075401045 -0.17955674 0.09068411
0.0042217807 -0.01376456 0.14580609 -0.030170709 0.087463856 0.13734852 -0.032189395 -0.090065956
-0.052385088 -0.04971052 -0.059653822 0.02893982 0.17163287 -0.054828476 -0.004797361 0.16536398
0.18487208 0.18734361 0.09264092 -0.020875812 0.12364059 -0.07357343 0.0693747 -0.1913081
0.026969526 0.3214699 -0.02824216 -0.028828165 0.072091304 0.063983746 0.008390364 0.0045178575
-0.12474089 -0.02244418 -0.19700561 -0.0063532186 0.021078452 -0.08729069 0.0026439456 0.10773062
0.13482067 0.26292616 0.028162643 -0.07270032 0.17783181 -0.18919715 0.10179403 0.007110878
0.0011140164 -0.23576616 0.09360743 0.0854469 0.067347646 0.05995562 -0.32668605 -0.093425624
-0.025723374 0.20876902 0.00037681055 -0.10082841 0.07877832 0.06665613 -0.055901572 0.029959753
-0.1933537 -0.078990206 0.21617666 -0.0122548295 -0.067822516 0.20440689 0.13449223 0.16368191
0.10184896 0.09146297 -0.09100525 -0.097756766 0.012351653 -0.109122604 0.075956054 0.111152574
0.042696737 0.2081372 0.21689676 0.090296976 0.12492404 0.05937982 -0.053156346 -0.2935514
-0.10006808 0.107783526 0.19986418 0.04210325 0.09423294 0.07302519 -0.13314153 0.05789989
0.09918491 0.0009844324 -0.072842315 0.05833189 0.08862856 -0.03875649 -0.021173846 0.10841628
-0.21509108 -0.03287056 0.26001355 0.09725878 0.053160667 0.15088789 0.12460308 -0.049962852
0.0936198 -0.13332963 -0.062563315 -0.026099741 -0.0959815 0.042218436 -0.032021668 0.3472223
0.116016984 -0.21637344 -0.08842384 -0.044209167 -0.10042669 -0.29374364 -0.31999385 0.35094172
-0.014343457 0.1000426 -0.119023025 -0.08019951 -0.16133815 -0.019356985 -0.13171719 -0.18046646
0.17582598 0.040932633 -0.07388795 -0.027512968 -0.22498381 -0.24119261 0.07123184 -0.02837265
0.053196806 0.063566774 0.13867275 -0.21624824 -0.02798406 0.24301858 0.005074232 0.012876168
-0.025633797 -0.01159879 -0.049617615 -0.040893756 -0.041278936 0.15387385 -0.03519471 0.1790025
0.17620315 -0.088434435 -0.21399473 -0.019433059 -0.101326965 0.24915117 0.24502793 -0.10559128

linear.0.bias f4 [32]
00000000: 2518 4a3d 5277 94bd e64a 95bd 1e3c 11bd
00000010: f535 473d 3830 4ebd b2a6 8a3d a8a0 8a3d
00000020: 59e4 2d3d eef0 70bd a5a1 88bd 4258 adbd
00000030: b4c5 353d fa63 6b3d 176e ff3c c48d 21bd
00000040: 6225 27bd 62a1 5c3d 444a 73bd 7881 58bd
00000050: 0bb9 60bd 7156 663d c987 6abd c177 80bd
00000060: 0b87 783d 1cc4 da3c a915 a2bd 3844 773d
00000070: b977 3b3d db42 943d 73d6 94bd db34 d43c
0.049339432 -0.07249321 -0.07289676 -0.035457723 0.04863544 -0.050338954 0.06770076 0.06768924
0.042454097 -0.05882352 -0.06671456 -0.084640995 0.044377998 0.057468392 0.031180425 -0.03944184
-0.040807135 0.053864844 -0.059396997 -0.052857846 -0.05486397 0.05623478 -0.0572584 -0.06272841
0.060675662 0.02670484 -0.079142876 0.060367793 0.045768473 0.07239314 -0.072674654 0.02590411

linear.3.weight f4 [2, 32]
00000000: 3b66 263e 0261 bc3d d3ae b3bd 5d7e 993c
00000010: 72fc dd3d b393 8ebc b97b b53d 8dc7 733e
00000020: daf4 653e 2000 14bc 229d d63d e2ae d1bd
00000030: c902 403e c958 893d 3cf8 433d d156 983c
00000040: 39b2 4abb a468 843e 380c e4bd c1a3 d2bd
00000050: 1c15 0fbc 6673 323e b35a aa3b 930b 713d
00000060: 2c9c 133e 1df4 293e 4b7c 8abb b885 1b3e
00000070: 18f0 b33d 2749 3d3d b01e 7cbd 28b3 553e
00000080: 2a85 d7bd 7280 e1bc db42 c7bd 6b98 41ba
00000090: f45f 13be 44fc cd3d caab e5bd b6f7 1b3d
000000a0: 22ca 4d3a 74bc 61bd ce6b 433d bb72 14be
000000b0: dc7d 9abd 3ef7 33be c4a9 34be 6d27 e43d
000000c0: d820 e7bd 4a60 d5bc af88 2dbe b041 35bd
000000d0: f373 ebbd c00f 9fbd 599e 6fbc cb5d 843d
000000e0: ecac bfbd 1d21 b7bd c248 ca3d c599 a6bd
000000f0: eca8 35be 8280 25be 2cb3 e2bd a859 92bc
0.16249935 0.0919819 -0.087735794 0.018737013 0.10839166 -0.017404413 0.08861489 0.23806591
0.22456685 -0.009033233 0.104791895 -0.102384344 0.18751062 0.067063875 0.047844157 0.018596085
-0.0030928983 0.25861084 -0.11135143 -0.1028514 -0.00873306 0.17426834 0.0051988005 0.05884893
0.14415044 0.16597028 -0.0042262427 0.15187728 0.087860286 0.04621234 -0.061552703 0.20869124
-0.10523446 -0.027527068 -0.097295485 -0.0007385078 -0.14392072 0.100578815 -0.11214407 0.038078032
0.00078502495 -0.055111364 0.047710232 -0.14496891 -0.07543537 -0.17574784 -0.17642885 0.11140332
-0.11285561 -0.02604689 -0.16946672 -0.044252098 -0.11496725 -0.07766676 -0.014625155 0.06463202
-0.09359154 -0.08941863 0.09877159 -0.08134798 -0.1774022 -0.16162303 -0.110693306 -0.017865017

linear.3.bias f4 [2]
00000000: 417d 4a3d 6f58 d93c
0.049435858 0.026531426
